…
tput_type":"stream"}],"execution_count":25},{"id":"265043ef","cell_type":"code","source":"model","metadata":{"trusted":true,"execution":{"iopub.status.busy":"2025-01-25T09:59:15.574824Z","iopub.execute_input":"2025-01-25T09:59:15.575583Z","iopub.status.idle":"2025-01-25T09:59:15.581707Z","shell.execute_reply.started":"2025-01-25T09:59:15.575542Z","shell.execute_reply":"2025-01-25T09:59:15.580813Z"}},"outputs":[{"execution_count":26,"output_type":"execute_result","data":{"text/plain":"BertForSequenceClassification(\n  (bert): BertModel(\n    (embeddings): BertEmbeddings(\n      (word_embeddings): Embedding(30522, 768, padding_idx=0)\n      (position_embeddings): Embedding(512, 768)\n      (token_type_embeddings): Embedding(2, 768)\n      (LayerNorm): LayerNorm((768,), eps=1e-12, elementwise_affine=True)\n      (dropout): Dropout(p=0.1, inplace=False)\n    )\n    (encoder): BertEncoder(\n      (layer): ModuleList(\n        (0-11): 12 x BertLayer(\n          (attention): BertAttention(\n            (self): BertSdpaSelfAttention(\n              (query): Linear(in_features=768, out_features=768, bias=True)\n              (key): Linear(in_features=768, out_features=768, bias=True)\n              (value): Linear(in_features=768, out_features=768, bias=True)\n              (dropout): Dropout(p=0.1, inplace=False)\n            )\n            (output): BertSelfOutput(\n              (dense): Linear(in_features=768, out_features=768, bias=True)\n              (LayerNorm): LayerNorm((768,), eps=1e-12, elementwise_affine=True)\n              (dropout): Dropout(p=0.1, inplace=False)\n            )\n          )\n          (intermediate): BertIntermediate(\n            (dense): Linear(in_features=768, out_features=3072, bias=True)\n            (intermediate_act_fn): GELUActivation()\n          )\n          (output): BertOutput(\n            (dense): Linear(in_features=3072, out_features=768, bias=True)\n            (LayerNorm): LayerNorm((768,), eps=1e-12, elementwise_affine=True)\n            (dropout): Dropout(p=0.1, inplace=False)\n          )\n        )\n      )\n    )\n    (pooler): BertPooler(\n      (dense): Linear(in_features=768, out_features=768, bias=True)\n      (activation): Tanh()\n    )\n  )\n  (dropout): Dropout(p=0.1, inplace=False)\n  (classifier): Linear(in_features=768, out_features=3, bias=True)\n)"},"metadata":{}}],"execution_count":26},{"id":"9fc7f8e8","cell_type":"markdown","source":"### compute metrics","metadata":{}},{"id":"20a93fa1","cell_type":"code","source":"from sklearn.metrics import f1_score,accuracy_score\ndef compute_metrics(pred):\n    labels = pred.label_ids\n    preds = pred.predictions.argmax(-1)\n    f1 = f1_score(labels,preds
…
